model_ 80.pt (torch, 879162 bytes, 126 tensors)

embeddings.cls_token f4 [1, 1, 64]
-0.019423649 0.01377644 -0.020792998 -0.027094293 0.016225994 -0.010920696 0.022090929 -0.010192369
-0.011812025 0.036256425 0.014025914 -0.022042122 -0.054273687 0.014819846 -0.008983011 -0.018701708
0.035300266 0.0033658878 -0.011848901 0.008535428 -0.0035667887 0.0027087086 -0.013617011 -0.0027030467
-0.018357873 0.006075454 -0.023438303 0.01744154 -0.012152423 -0.0070516355 0.0005765355 -0.004601684
0.048285007 0.009814982 -0.009574822 -0.023962237 -0.048765305 -0.02166392 -0.0025212788 -0.0072772554
-0.0030472507 -0.026965106 -0.016489021 -0.01843581 0.0006168207 0.0049534496 0.037745837 0.023984842
0.010642821 -0.0041326056 -0.018788802 0.010865914 -0.012864881 -0.0118409535 0.019057816 0.013415888
0.015101709 -0.014582562 -0.01868567 -0.021405185 0.031840708 -0.013566641 -0.023680348 -0.03574268
00000000: 581e 9fbc 94b6 613c 1456 aabc daf4 ddbc
00000010: 60ec 843c b8ec 32bc 09f8 b43c e5fd 26bc
00000020: 3987 41bc 9e81 143d f2cc 653c ae91 b4bc
00000030: 164e 5ebd f0ce 723c 7b2d 13bc 5334 99bc
00000040: 0397 103d 3a96 5c3b e521 42bc 2ed8 0b3c
00000050: c9c0 69bb 9784 313b e219 5fbc 9925 31bb
00000060: 4063 96bc 9a14 c73b af01 c0bc 8fe1 8e3c
00000070: f51a 47bc 6811 e7bb a422 173a b9c9 96bb
00000080: 80c6 453d 05cf 203c b7df 1cbc 744c c4bc
00000090: 21be 47bd 8878 b1bc 0a3c 25bb 0b76 eebb
000000a0: 62b4 47bb ede5 dcbc fc13 87bc b206 97bc
000000b0: 23b2 213a 8c50 a23b 619b 1a3d dc7b c43c
000000c0: 3a5f 2e3c cf6a 87bb f9ea 99bc f206 323c
000000d0: 39c7 52bc 8f00 42bc 231f 9c3c 50ce 5b3c
000000e0: 296d 773c b3eb 6ebc b112 99bc ed59 afbc
000000f0: 676b 023d 9e46 5ebc 4afd c1bc eb66 12bd

embeddings.position_embeddings f4 [1, 197, 64]
0.0035465688 0.005936536 0.025103427 -0.021569928 0.0043559303 -0.00526558 -0.0021691564 -0.014230136
-0.009941528 -0.006913316 -0.04448666 -0.019091953 -0.01973199 0.040764477 0.03652284 -0.0010941306
-0.024075536 0.00945245 -0.046772946 -0.032754123 0.023496635 0.0177316 0.016067531 -0.023486732
-0.013063422 -0.018632282 -0.020826655 0.005214237 0.021426579 -0.021381382 -0.0013188955 0.012111266
0.025225911 0.017245272 -0.04573052 -0.008705825 0.033592734 -0.0072178347 -0.056741484 0.02740574
0.007100272 0.0076941526 0.026187932 -0.00993389 0.008053578 -0.033842612 -0.0022024678 -0.01132409
0.00993092 -0.022886917 0.046762817 0.006606544 -0.036406424 -0.0062330104 -0.017093748 0.015165137
0.039078448 0.02704434 0.022764375 0.039896272 0.00274711 0.0070767784 -0.0018288617 -0.026458267
0.012007643 0.027318643 0.01221292 -0.01701928 0.0077164513 0.0023506645 0.0135722 0.027270354
6.142276e-05 0.018418558 0.0051042736 0.0073032305 -0.02950425 -0.014992057 -0.021942705 -0.025074603
0.0034939572 0.017138343 0.02906674 -0.009123137 -0.009019717 0.010631862 -0.021332592 -0.035583366
0.011077505 -0.03016673 -8.2029015e-05 -0.006234213 -0.0034831571 -0.018660238 -0.005096669 0.011181999
-0.004013734 -0.011341348 0.032889076 0.008144235 0.012758974 -0.031688306 0.005531114 0.015561784
-0.016150417 -0.011304534 0.00036518066 -0.007398649 -0.020561462 0.005359017 -0.0236384 0.0130719235
0.0023720874 0.010690129 -0.0067923428 -0.0041199764 0.009279179 0.0204456 0.011602116 -0.050966587
0.01953627 0.0064908965 -0.01497964 0.0049515567 -0.013188824 0.018842896 -0.0063978774 -0.004768785
0.009068841 -0.015964689 -0.013451168 -0.029251488 0.014664286 -0.013392122 0.010329459 0.033038773
0.024007764 -0.052076902 -0.026921654 -0.0039182603 0.020784378 -0.021149283 -0.009442196 0.02521525
-0.0034381237 0.0114894565 0.008795198 0.013251386 -0.011541411 0.05847986 0.024680287 0.0020538522
0.010817341 -0.011616566 0.012565566 0.007497131 0.017472615 -0.006649813 0.023412965 0.0014970422
-0.008143666 0.012120423 0.053807907 0.01857942 0.018976158 -0.007464817 -0.010258777 -0.009012767
-0.04703829 0.03303703 -0.022845 -0.025969055 0.019244563 0.0051888186 0.0029044335 0.008061616
0.0033929853 0.003262508 0.005616081 0.0026615658 -0.0053650993 -0.046925858 -0.0043026987 -0.016547155
0.026705636 -0.027341982 0.021494223 0.017962096 -0.003762672 -0.006572914 -0.014308942 0.010186845
-0.0058572814 -0.010768757 0.049601387 0.029984048 -0.031371567 0.033665642 0.016885163 0.033715412
0.018009195 0.0071148598 0.0072017377 -0.016457789 -0.027112052 0.0072396877 -0.010035204 0.008964903
0.0049218372 0.014136074 0.006510547 -0.016877228 -0.005543805 0.0019394874 0.009586201 -0.012526402
-0.010895836 -0.021461774 0.014519266 -0.018641168 0.011240754 0.016143396 0.016615745 0.031923853
0.01954489 -0.015492757 0.005705376 0.004626772 0.0077798804 -0.0034103538 0.015408881 0.0035656104
-0.03766372 -0.0369299 -0.017091915 -0.020985225 -0.00091409555 0.046917334 0.0056959977 0.009470055
0.009164855 0.012935449 0.013369696 -0.052153233 0.020737173 -0.01205763 0.02679933 -0.026971472
-6.911821e-05 0.016176403 -0.023384925 -0.010564115 -0.0029452376 -0.029809935 0.023228856 -0.009785765
00000000: 8d6d 683b 4687 c23b b4a5 cd3c 6bb3 b0bc
00000010: 31bc 8e3b e38a acbb 6828 0ebb 8425 69bc
00000020: cae1 22bc 1989 e2bb a537 36bd ba66 9cbc
00000030: fba4 a1bc a7f8 263d f998 153d ee68 8fba
00000040: 0f3a c5bc 73de 1a3c fd94 3fbd 3029 06bd
00000050: 047c c03c dc41 913c 0ea0 833c 3f67 c0bc
00000060: f707 56bc baa2 98bc a99c aabc 31dc aa3b
00000070: cb86 af3c 0228 afbc cade acba 556e 463c
00000080: 92a6 ce3c f545 8d3c ed4f 3bbd e0a2 0ebc
00000090: 8998 093d 9683 ecbb c269 68bd 0182 e03c
000000a0: 66a9 e83b 3b1f fc3b 1388 d63c c1c1 22bc
000000b0: 28f3 033c 8d9e 0abd 4757 10bb ad88 39bc
000000c0: 4cb5 223c 587d bbbc 5e8a 3f3d b57b d83b
000000d0: e71e 15bd 483e ccbb 3008 8cbc 3277 783c
000000e0: b910 203d 178c dd3c 5b7c ba3c 466a 233d
000000f0: dc08 343b 52e4 e73b 6ab6 efba 02bf d8bc
00000100: b4bb 443c 59cb df3c b318 483c 046c 8bbc
00000110: 49da fc3b 9b0d 1a3b ef5d 5e3c 1466 df3c
00000120: 18d0 8038 84e2 963c c041 a73b f04f ef3b
00000130: e6b2 f1bc 3fa1 75bc 30c1 b3bc 4169 cdbc
00000140: e0fa 643b b665 8c3c 5f1d ee3c 3679 15bc
00000150: 6fc7 13bc 4331 2e3c b0c1 aebc ddbf 11bd
00000160: 6c7e 353c 3820 f7bc fe06 acb8 5e48 ccbb
00000170: ae45 64bb 5bdd 98bc f501 a7bb b434 373c
00000180: a485 83bb 10d1 39bc b2b6 063d 666f 053c
00000190: 040b 513c 99cb 01bd 593e b53b daf6 7e3c
000001a0: e14d 84bc a736 39bc b875 bf39 5e70 f2bb
000001b0: 8370 a8bc b19a af3b 51a5 c1bc 9f2b 563c
000001c0: 0675 1b3b a725 2f3c 4d92 debb de00 87bb
000001d0: b307 183c 887d a73c cd16 3e3c 57c2 50bd
000001e0: 870a a03c 96b1 d43b 2a6d 75bc ab40 a23b
000001f0: f015 58bc 6b5c 9a3c 49a5 d1bb 7843 9cbb
00000200: 7a95 143c 61c8 82bc 4a62 5cbc d1a0 efbc
00000210: 7942 703c a26a 5bbc e43c 293c aa53 073d
00000220: eeab c43c 974e 55bd cd8a dcbc c064 80bb
00000230: 0044 aa3c 4341 adbc 71b3 1abc 3690 ce3c
00000240: 2552 61bb 463e 3c3c bc19 103c 571c 593c
00000250: 3018 3dbc 9488 6f3d 502e ca3c ec99 063b
00000260: 373b 313c 6953 3ebc cedf 4d3c 7eaa f53b
00000270: bb22 8f3c ade6 d9bb 8ccc bf3c 6738 c43a
00000280: 036d 05bc bd94 463c ae65 5c3d de33 983c
00000290: e373 9b3c 6c9b f4bb 6e14 28bc 49aa 13bc
000002a0: 39ab 40bd d651 073d 7025 bbbc 0ebd d4bc
000002b0: c6a6 9d3c f706 aa3b 4f58 3e3b de14 043c
000002c0: d95c 5e3b cdcf 553b 1a07 b83b aa6d 2e3b
000002d0: b7cd afbb 5435 40bd a7fd 8cbb e68d 87bc
000002e0: c7c5 da3c 4bfc dfbc a714 b03c 3f25 933c
000002f0: 2997 76bb 9961 d7bb 0d70 6abc bae6 263c
00000300: 70ee bfbb 716f 30bc d32a 4b3d 1ba1 f53c
00000310: 797f 00bd fce4 093d c152 8a3c 2c19 0a3d
00000320: 0588 933c c523 e93b 8efc eb3b 7cd2 86bc
00000330: 181a debc e73a ed3b b26a 24bc 87e1 123c
00000340: 5d47 a13b fe9a 673c 6d56 d53b 1d42 8abc
00000350: cfa8 b5bb 6636 fe3a 710f 1d3c 8a3b 4dbc
00000360: 7384 32bc 9ad0 afbc 37e2 6d3c 5db5 98bc
00000370: 242b 383c 283f 843c be1d 883c 96c2 023d
00000380: 9b1c a03c 55d5 7dbc 2af4 ba3b 2d9c 973b
00000390: 5eee fe3b 3e80 5fbb 8875 7c3c 04ad 693b
000003a0: 4645 1abd cf43 17bd 5804 8cbc 35e9 abbc
000003b0: ea9f 6fba 642c 403d 7ea5 ba3b 4a28 1b3c
000003c0: 3028 163c 35ef 533c 920c 5b3c a19e 55bd
000003d0: 01e1 a93c 5e8d 45bc 458a db3c 47f3 dcbc
000003e0: 8ef3 90b8 6084 843c be91 bfbc 1c15 2dbc
000003f0: e304 41bb f733 f4bc 714a be3c 7954 20bc

embeddings.patch_embeddings.projection.weight f4 [64, 3, 16, 16]
-0.026413027 -0.0050032446 -0.0005029744 0.018049935 0.00021550072 0.005668026 -0.045373335 -0.02347357
-0.015287102 -0.020879168 -0.02103703 0.0071271257 -0.050508562 -0.003897322 -0.017634995 -0.0031183788
0.0067865937 0.0029965339 0.016845066 0.02168005 0.014379048 -0.016627565 0.0121792415 -0.0055176225
-0.007566683 -0.0071524647 0.0070044436 -0.00499306 -0.013457934 0.032848913 -0.012489004 0.010066681
0.010769733 0.037426367 0.0075246114 -0.0038885619 0.01850554 -0.0003239798 0.0070947562 -0.0071762744
-0.0059721847 0.017852737 0.014146189 0.0011092805 0.043903485 0.00818898 -0.014897743 -0.0014723511
-0.0044026743 -4.6136447e-05 -0.0057847113 0.027912749 -0.035447944 0.007140516 0.006657792 0.021445382
0.010485581 0.011650712 -0.01792828 0.0020134489 -0.001660296 -0.033984218 -0.0010773685 0.016642913
-0.025071703 0.00805904 0.005668302 0.037499394 0.011964816 0.0079323035 0.015765002 -0.020618575
-0.014318615 0.026215304 0.01825205 -0.006781829 0.030286623 0.024259092 0.0013364907 0.01942076
0.0040543396 -0.0063204784 0.0066584735 0.015363684 -0.041271478 0.0029824544 -0.009097723 -0.028617233
-0.006930912 -0.010659046 -0.000878454 -0.018242149 -0.025876453 0.0011384066 0.00732447 -0.009521101
0.01747836 -0.013421329 -0.025615713 0.0039459337 -0.026437517 -0.011170763 -0.019179652 0.031456098
0.009037981 -0.004637293 -0.0023122572 -0.001006423 -0.0042821635 -0.0077585275 0.029892286 -0.038183887
0.015958766 -0.038649876 -0.04004455 0.0029617243 0.009094109 -0.023957977 0.000651431 -0.017587071
-0.008273474 0.005690613 -0.0020687068 0.020030504 -0.0076042637 0.003443406 0.029655805 0.0053943396
-0.032641083 0.004900361 -0.006446196 -0.021522675 0.0021861426 -0.02682633 0.0060836417 0.0020624741
0.015366783 -0.03508173 -0.0011770623 -0.005243068 0.026894182 0.009860854 0.031131169 0.0054409
-0.04444189 -0.010560473 0.018001266 -0.024048172 0.018818444 -0.02626318 -0.014840222 -0.025274707
0.019694462 -0.0014054946 -0.029684236 0.0040640323 -0.0053366264 0.0028431327 0.019943748 -0.018045273
-0.016654681 0.014470116 -0.00033265786 0.044494655 -0.022590691 -0.013727215 -0.05094064 -0.020903569
-0.060182158 -0.017394627 -0.01918213 0.014695162 -0.012693049 -0.015283313 -0.004783374 -0.001528903
0.010316853 0.033820607 -0.0038731676 -0.005105069 0.0075318385 0.019398618 0.025221838 -0.0064196857
0.03663048 0.006465358 -0.022097765 0.018865064 0.01568394 -0.041262284 -0.021480659 -0.031248035
-0.006244715 -0.03697647 0.005856094 0.015518012 -0.0013229921 0.007705475 -0.0014135314 -0.010395864
-0.020735364 -0.027368717 -0.029164638 0.004639155 -0.011235986 0.0059023006 -0.017988896 0.011482559
0.0035263468 -0.02971308 0.024663283 -0.020943565 -0.007687668 -0.04468282 -0.007358654 -0.01599589
-0.0068172505 -0.0037796814 -0.03176243 -0.031318214 0.041139092 -0.0074242647 0.009833973 0.02290864
-0.0047731837 0.015398133 -0.030377477 0.021634609 0.01818106 0.011486474 -0.019020917 -0.007077989
-0.012965322 0.0017643245 -0.0006133649 -0.021661658 0.0032716317 0.0064371373 0.04443685 -0.025590183
-0.026169946 0.00056703395 -0.041492738 -0.028605081 -0.030517846 0.010123055 -0.004331677 -0.0018337476
-0.0066903643 -0.00035150725 -0.024261666 0.012913538 0.007387484 0.0036611734 0.029562138 -0.045929078
00000000: 2260 d8bc 42f2 a3bb 0ada 03ba 75dd 933c
00000010: 09f8 6139 d9ba b93b 64d9 39bd a54b c0bc
00000020: c176 7abc ca0a abbc d955 acbc aa8a e93b
00000030: 11e2 4ebd 376a 7fbb 4477 90bc b75d 4cbb
00000040: 1362 de3b 7f61 443b aafe 893c 5c9a b13c
00000050: 1996 6b3c 8836 88bc 718b 473c 2ccd b4bb
00000060: f0f1 f7bb 395f eabb 8885 e53b d39c a3bb
00000070: ab7e 5cbc 958c 063d ae9e 4cbc b8ee 243c
00000080: 8973 303c 644c 193d 0491 f63b 3ed7 7ebb
00000090: ee98 973c d5db a9b9 217b e83b f426 ebbb
000000a0: 51b2 c3bb e73f 923c 6bc5 673c 4765 913a
000000b0: 24d4 333d 122b 063c aa15 74bc e8fb c0ba
000000c0: 4f44 90bb a282 41b8 ad8d bdbb 47a9 e43c
000000d0: dd31 11bd fdfa e93b 9b29 da3b 3aae af3c
000000e0: b7cb 2b3c a1e2 3e3c 54de 92bc 11f4 033b
000000f0: 4a9e d9ba 0933 0bbd 7d36 8dba b856 883c
00000100: 2c63 cdbc 100a 043c 2abd b93b f798 193d
00000110: 1308 443c 7ef6 013c 9b25 813c 49e8 a8bc
00000120: a098 6abc 7ac1 d63c 5385 953c 1b3a debb
00000130: a71b f83c 01bb c63c 302d af3a 4918 9f3c
00000140: 44da 843b 041c cfbb 532f da3b f6b7 7b3c
00000150: 480c 29bd 4875 433b 9e0e 15bc b06e eabc
00000160: b41c e3bb 47a3 2ebc 0d48 66ba 8f70 95bc
00000170: dbfa d3bc 9636 953a 1c02 f03b 64fe 1bbc
00000180: c72e 8f3c 22e5 5bbc 0bd8 d1bc e44c 813b
00000190: 7e93 d8bc 9305 37bc a51e 9dbc 1cd8 003d
000001a0: 0a14 143c 6ff4 97bb 3d89 17bb f4e9 83ba
000001b0: 6451 8cbb 3f3b febb abe0 f43c b566 1cbd
000001c0: f5bb 823c 554f 1ebd c105 24bd 7d19 423b
000001d0: 75ff 143c 8543 c4bc cbc4 2a3a c312 90bc
000001e0: 778d 07bc 5278 ba3b 2493 07bb 0317 a43c
000001f0: 302d f9bb c4aa 613b bbf0 f23c 00c3 b03b
00000200: a8b2 05bd 3593 a03b 9d3a d3bb 5250 b0bc
00000210: 6345 0f3b e4c2 dbbc 4959 c73b 932a 073b
00000220: f6c4 7b3c dcb1 0fbd a847 9aba 0bce abbb
00000230: 3051 dc3c 6b8f 213c cb06 ff3c 9449 b23b
00000240: b308 36bd d605 2dbc 6477 933c ac00 c5bc
00000250: 2329 9a3c e125 d7bc 6724 73bc e70c cfbc
00000260: 4856 a13c 9338 b8ba 5b2c f3bc 932b 853b
00000270: dede aebb da53 3a3b 1261 a33c aed3 93bc
00000280: 666f 88bc 1114 6d3c 9568 aeb9 0740 363d
00000290: 1d10 b9bc 1de8 60bc 22a7 50bd f63d abbc
000002a0: 9181 76bd 2d7f 8ebc d823 9dbc fac3 703c
000002b0: 82f6 4fbc dc66 7abc d9bd 9cbb 7965 c8ba
000002c0: 0508 293c 7a87 0a3d f8d4 7dbb 6c48 a7bb
000002d0: a4cd f63b dae9 9e3c 079e ce3c 3a5c d2bb
000002e0: d809 163d 5bdb d33b 5f06 b5bc e88a 9a3c
000002f0: 9b7b 803c a402 29bd 35f8 afbc e1fb ffbc
00000300: 77a0 ccbb a474 17bd 7ae4 bf3b 433f 7e3c
00000310: 4068 adba 367e fc3b 3e46 b9ba 6a53 2abc
00000320: 36dd a9bc 5c34 e0bc aeea eebc 0e04 983b
00000330: 2417 38bc 1668 c13b 735d 93bc 5821 3c3c
00000340: 481a 673b d868 f3bc a70a ca3c d791 abbc
00000350: d5e8 fbbb 5505 37bd dd20 f1bb d009 83bc
00000360: 3e63 dfbb 88b4 77bb 5219 02bd 8747 00bd
00000370: 7781 283d 3f47 f3bb ac1e 213c e6aa bb3c
00000380: 5e68 9cbb 7348 7c3c 30da f8bc 103b b13c
00000390: 72f0 943c c431 3c3c c1d1 9bbc 7aee e7bb
000003a0: 806c 54bc e840 e73a 39ca 20ba ca73 b1bc
000003b0: df68 563b 9fee d23b 6a03 363d 81a2 d1bc
000003c0: 5b62 d6bc 01a5 143a 4af4 29bd 3455 eabc
000003d0: 9000 fabc 2cdb 253c bef0 8dbb 5c5a f0ba
000003e0: d83a dbbb 814a b8b9 67c0 c6bc 4e93 533c
000003f0: b512 f23b 4cf0 6f3b 4c2c f23c 2120 3cbd

embeddings.patch_embeddings.projection.bias f4 [64]
-0.004866867 -0.0050801244 0.0030341123 -0.004037844 0.0033451514 0.00391697 0.0049611595 0.003944872
-0.004849041 0.0030382662 -0.0010707374 -0.003976845 -0.004896767 0.0052265255 -0.0025083965 -0.00080634357
0.0022628887 0.004277551 0.0022114206 -0.004416417 0.0042141955 -0.0026724387 -0.0038696227 -0.0053088386
0.0044401214 -0.001335704 0.0050904755 0.0050385296 0.005257296 -0.0043692198 -0.0015079378 0.004707896
0.004789341 -0.0029299275 -0.0049151643 -0.0054186564 -0.0026420273 -0.003638034 0.00042072675 -0.00056520896
-0.00440369 0.0041312478 -0.003504997 -0.0038742018 0.004332544 0.004106188 -0.0017558605 0.0052169943
0.0051949136 0.0043000225 0.0037491298 -0.0009499783 -0.0043480597 -0.0044292943 0.0045946203 -0.004842166
-0.004792914 -0.0017193191 -0.0047108354 0.00404176 -0.0043266765 0.005278592 0.0040973965 0.0033525648
00000000: 3d7a 9fbb 2c77 a6bb f5d7 463b e44f 84bb
00000010: 543a 5b3b ed59 803b 3991 a23b fc43 813b
00000020: b4e4 9ebb a61d 473b fc57 8cba 3250 82bb
00000030: 0f75 a0bb 4643 ab3b e963 24bb cd60 53ba
00000040: f94c 143b b32a 8c3b 7bed 103b 97b7 90bb
00000050: 3c17 8a3b 1524 2fbb 7f99 7dbb c4f5 adbb
00000060: 707e 913b ca12 afba 01ce a63b 401a a53b
00000070: 6545 ac3b ac2b 8fbb ffa5 c5ba b244 9a3b
00000080: e7ef 9c3b 0704 40bb 630f a1bb fc8e b1bb
00000090: dd25 2dbb 156c 6ebb fd94 dc39 882a 14ba
000000a0: d44c 90bb 6b5f 873b 17b4 65bb 52e6 7dbb
000000b0: 03f8 8d3b 348d 863b e724 e6ba 52f3 aa3b
000000c0: 183a aa3b 34e7 8c3b f6b3 753b f707 79ba
000000d0: 2b7a 8ebb 9d23 91bb 788e 963b 08ab 9ebb
000000e0: e00d 9dbb c75a e1ba 5a5d 9abb be70 843b
000000f0: cbc6 8dbb 0af8 ac3b 7443 863b b4b6 5b3b

encoder.blocks.0.norm1.weight f4 [64]
0.99983287 1.0002812 1.0008198 0.99994224 1.0022413 1.0028092 1.0034397 1.0048556
1.0025432 0.9998448 0.9983492 1.0003469 1.0029755 1.0038754 0.99797595 1.0014855
0.9986881 1.003093 1.0041023 1.0017956 1.003919 0.9985736 1.0017092 1.00476
1.0019033 0.99810416 0.99725395 1.0042559 1.0041714 0.99716526 1.003316 1.0031201
1.0041313 1.000367 1.0048155 0.9995669 0.9987267 1.0011094 1.0000775 1.0002654
0.9969751 0.9973001 1.0016091 1.0035204 1.0043348 1.0017843 1.000072 0.99867105
1.0021164 1.0017179 0.9959929 0.9976298 1.0024588 0.99864346 1.0007629 1.004173
1.0025626 1.0011733 1.0022616 1.0040711 1.002723 1.0009121 0.9995373 1.0010852
00000000: 0cf5 7f3f 3709 803f dd1a 803f 37fc 7f3f
00000010: 7149 803f 0d5c 803f b670 803f 1c9f 803f
00000020: 5653 803f d4f5 7f3f d093 7f3f 5e0b 803f
00000030: 8061 803f fd7e 803f 5a7b 7f3f ad30 803f
00000040: 06aa 7f3f 5a65 803f 6d86 803f d73a 803f
00000050: 6b80 803f 85a2 7f3f 0238 803f fa9b 803f
00000060: 5e3e 803f c183 7f3f 094c 7f3f 758b 803f
00000070: b088 803f 3946 7f3f a96c 803f 3d66 803f
00000080: 6087 803f 070c 803f cb9d 803f 9ee3 7f3f
00000090: 8eac 7f3f 5a24 803f 8a02 803f b208 803f
000000a0: c339 7f3f 0f4f 7f3f ba34 803f 5b73 803f
000000b0: 0b8e 803f 783a 803f 5c02 803f e8a8 7f3f
000000c0: 5a45 803f 4b38 803f 64f9 7e3f ab64 7f3f
000000d0: 9250 803f 19a7 7f3f 0019 803f be88 803f
000000e0: f953 803f 7226 803f 1c4a 803f 6785 803f
000000f0: 3a59 803f e31d 803f ade1 7f3f 8f23 803f

encoder.blocks.0.norm1.bias f4 [64]
-0.002862147 -0.0022970333 0.0030017619 -0.003697887 0.0034604934 0.003473099 0.004262111 0.0050826524
-0.0047165323 0.0019030351 0.00034150903 -0.002771648 0.0005419258 0.004227535 -0.0028459965 0.0009215085
0.004327029 0.0047059306 0.0041296897 -0.0037283276 0.00411328 -0.003597925 -0.004671958 -0.005211186
0.00442257 0.002234437 0.0026788483 0.0044495766 0.0048754364 0.002470046 -0.003979273 0.0049858317
0.0047289287 -0.004105104 -0.004877933 -0.0042324187 -0.002465648 -0.00083481224 -0.0019067525 -0.004859664
0.0019145956 0.00029159966 -0.0038509506 -0.0041733873 0.0050808056 0.004324421 -0.0028027461 0.00080413633
0.0015477277 0.0037268985 -0.0022691197 0.002662413 -0.0040000784 -0.0012033912 0.0028237645 -0.004677069
-0.0042433525 -0.0024804808 -0.0032864332 0.004271386 -0.0045508374 0.004946734 0.0028626227 0.0021959452
00000000: dc92 3bbb d389 16bb 35b9 443b 4058 72bb
00000010: 72c9 623b ef9c 633b 2ea9 8b3b 618c a63b
00000020: 248d 9abb 436f f93a 910c b339 8aa4 35bb
00000030: 0610 0e3a 2287 8a3b e683 3abb 6391 713a
00000040: c0c9 8d3b 3534 9a3b 5952 873b f556 74bb
00000050: b2c8 863b 2acb 6bbb 3917 99bb 99c2 aabb
00000060: 35eb 903b a26f 123b 9e8f 2f3b c1cd 913b
00000070: 20c2 9f3b 7fe0 213b 9064 82bb 3060 a33b
00000080: 21f5 9a3b 1c84 86bb 11d7 9fbb 1ab0 8abb
00000090: b696 21bb 4dd7 5aba ffeb f9ba d13d 9fbb
000000a0: 2bf3 fa3a d8e1 9839 3b60 7cbb e9c0 88bb
000000b0: e37c a63b dfb3 8d3b 47ae 37bb adcc 523a
000000c0: 20dd ca3a fb3e 743b 83b5 14bb e17b 2e3b
000000d0: 1713 83bb 1cbb 9dba e80e 393b 1942 99bb
000000e0: d20b 8bbb 908f 22bb 3361 57bb fcf6 8b3b
000000f0: 311f 95bb 3618 a23b d79a 3b3b d9e9 0f3b

encoder.blocks.0.MHA.heads.0.query.weight f4 [12, 64]
-0.030518593 -0.029645074 -0.0013903475 -0.009921846 -0.008434156 0.023708805 -0.023348648 0.0057293233
0.010630599 -0.021126868 -0.031241575 0.02144105 0.012716308 0.009458314 -0.030459354 0.02038865
-0.007854511 0.021877734 -0.0027948564 0.008904197 -0.006363195 0.02822383 -0.042664774 -0.009891192
-0.021638839 -0.0044798087 -0.007207557 0.015279513 -0.03179777 0.018106913 0.013122187 -0.004354936
0.0025092673 -0.0052967644 0.009360357 -0.01156074 0.026855703 -0.008448201 0.00635564 0.031574316
0.0020234769 -0.03593366 -0.018504549 0.01304541 -0.023335109 -0.01565257 -0.014028349 -0.020732071
-0.046287227 -0.015644431 0.019239098 0.00235651 -0.012751222 -0.015213994 -0.013534086 -0.023126671
0.008806618 0.01285707 0.034857 0.022875197 0.0028182091 0.0022991167 0.004306495 0.02597078
-0.015709443 0.025607144 0.017981345 0.005249726 0.006330726 -0.009563058 0.053080108 0.00076022407
0.0045960518 -0.025958488 -0.0145417955 -0.024230812 -0.034169894 -0.04617112 -0.039874144 -0.0017098744
-0.012519675 0.00039524963 0.0064696264 0.032164663 0.002364463 -0.024962509 -0.021796545 -0.0116414
0.005051196 -0.032088954 -0.011776056 -0.040588498 0.013850134 -0.0028279687 -0.0422027 0.028925052
0.064540915 -0.021395992 0.00593468 0.026290547 -0.017424928 -0.016707983 0.005472632 0.0139991455
0.04199039 -0.026226794 0.01975084 -0.013632149 0.04971559 0.009444931 0.048026666 -0.051087398
-0.0057105157 0.040461343 -0.01035652 -0.00016455447 0.023712954 0.0025422983 -0.025979929 -0.024049588
0.003245339 -0.015340144 0.0149116665 0.020478781 0.0068635223 0.014653082 0.027362006 0.0009174638
0.016306402 0.01790929 -0.0040001175 0.012808944 -0.008704358 0.030067615 -0.01108624 0.006960132
0.028970916 0.011705979 -0.004250612 -0.024641488 0.02004988 -0.005766639 -0.027070595 0.005770104
-0.017654238 -0.008716445 -0.021497045 -0.019076886 0.006804684 0.0032589128 -0.010584503 -0.008608656
0.027321788 -0.006600831 0.041277193 -0.002785935 0.0087048095 0.00063189765 0.0042518303 -0.011305306
-0.0012464626 -0.017684866 0.0070885564 -0.0057034194 -0.005536901 0.03541436 0.05439236 -0.019268902
-0.006058187 0.0039641173 0.005050746 -0.017078098 -0.032915685 0.019983176 -0.010184897 -0.0041913814
0.039104167 -0.010101181 -0.0035186643 -0.024196306 0.013638691 -0.0106040845 0.0010692246 0.0060231625
0.0024533954 0.016138425 -0.02633374 -0.037021995 -0.026655573 -0.012626239 -0.006397435 0.011026264
-0.018701155 -0.008541167 0.042363387 -0.026041137 -0.011990061 -0.0209268 0.015404281 -0.013527129
0.027103463 0.016410055 0.008461773 -0.033308357 -0.00493089 -0.023669397 -0.007255577 -0.025888348
-0.030486422 -0.0019006154 -0.029003209 0.037752844 -0.008967877 -0.03524417 -0.027553912 -0.0016011191
0.019969895 0.0025971734 -0.014862384 -0.06849786 0.01516458 0.0044391262 0.0018577789 -0.018181719
-0.029222017 -0.024124354 0.017529879 0.0011102256 -0.029981656 -0.003716796 0.01589856 0.0016733238
-0.0060607437 -0.0034237471 -0.006303243 -0.016910862 -0.0020322716 -0.035282776 -0.002156334 -0.002054654
0.008207495 -0.021294486 -0.017924128 0.009214084 0.0033359271 -0.008746809 0.006169773 0.014903684
-0.015785929 0.018036913 -0.03817923 0.013015079 -0.020266436 -0.019982822 -0.008181653 0.010119063
00000000: 2102 fabc 3ada f2bc 523c b6ba 3d8f 22bc
00000010: 6a2f 0abc f838 c23c aa45 bfbc 0cbd bb3b
00000020: f72b 2e3c 4112 adbc 55ee ffbc 24a5 af3c
00000030: 1058 503c 0bf7 1a3c e585 f9bc 1906 a73c
00000040: 35b0 00bc ef38 b33c e929 37bb e9e2 113c
00000050: 5982 d0bb a935 e73c 42c1 2ebd ab0e 22bc
00000060: ef43 b1bc 5ccb 92bb 5f2d ecbb ec56 7a3c
00000070: 613e 02bd f354 943c 71fe 563c dab3 8ebb
00000080: 8572 243b 7b90 adbb 2f5c 193c 4269 3dbc
00000090: 7e00 dc3c 536a 0abc f942 d03b 1254 013d
000000a0: 4f9c 043b 2c2f 13bd da96 97bc 6abc 553c
000000b0: 4529 bfbc d239 80bc 29d7 65bc 4ed6 a9bc
000000c0: ad97 3dbd c028 80bc 509b 9d3c ad6f 1a3b
000000d0: 80ea 50bc 1e44 79bc 12be 5dbc 2574 bdbc
000000e0: a249 103c 76a6 523c 37c6 0e3d c464 bb3c
000000f0: b4b1 383b c7ac 163b 801d 8d3b acc0 d43c
00000100: 17b1 80bc 13c6 d13c 9d4d 933c e505 ac3b
00000110: fb71 cf3b 5fae 1cbc 876a 593d c649 473a
00000120: 7a9a 963b e5a6 d4bc b640 6ebc b27f c6bc
00000130: bbf5 0bbd ee1d 3dbd 1253 23bd dd1d e0ba
00000140: 531f 4dbc 8239 cf39 29ff d33b 18bf 033d
00000150: 1bf5 1a3b 2d7e ccbc ab8e b2bc 92bb 3ebc
00000160: 8184 a53b b56f 03bd 5cf0 40bc 2040 26bd
00000170: aceb 623c 7155 39bb bddc 2cbd 3bf4 ec3c
00000180: 072e 843d a646 afbc b477 c23b 465f d73c
00000190: b9be 8ebc 2edf 88bc c453 b33b ac5c 653c
000001a0: 1dfe 2b3d 93d9 d6bc 83cc a13c 6159 5fbc
000001b0: 93a2 4b3d e9be 1a3c 9cb7 443d 0541 51bd
000001c0: 471f bbbb cbba 253d 65ae 29bc 418c 2cb9
000001d0: ab41 c23c b09c 263b dcd3 d4bc a403 c5bc
000001e0: c1af 543b 3a55 7bbc 1050 743c 1ec3 a73c
000001f0: 66e7 e03b 7b13 703c 4926 e03c f481 703a
00000200: 0195 853c 81b6 923c 6b13 83bb 9bdc 513c
00000210: b99c 0ebc 5c50 f63c 10a3 35bc d211 e43b
00000220: 6a54 ed3c 6fca 3f3c b848 8bbb f2dc c9bc
00000230: a53f a43c 13f6 bcbb 27c3 ddbc 2413 bd3b
00000240: 9f9f 90bc 6ccf 0ebc 921a b0bc 2147 9cbc
00000250: d4f9 de3b 7c93 553b a06a 2dbc 520b 0dbc
00000260: f1d1 df3c c94b d8bb 4612 293d 3c94 36bb
00000270: 9e9e 0e3c efa5 253a f052 8b3b e439 39bc
00000280: 5860 a3ba dadf 90bc 1f47 e83b c0e3 babb
00000290: e46e b5bb a60e 113d 86ca 5e3d d1d9 9dbc
000002a0: c283 c6bb 6de5 813b ba80 a53b 5ee7 8bbc
000002b0: 99d2 06bd c2b3 a33c 8ede 26bc db57 89bb
000002c0: b12b 203d 6d7f 25bc 6499 66bb 5537 c6bc
000002d0: d174 5f3c c1bc 2dbc 3925 8c3a f35d c53b
000002e0: 25c9 203b bb34 843c dbb9 d7bc 60a4 17bd
000002f0: ca5c dabc 49de 4ebc 93a1 d1bb 81a7 343c
00000300: 2a33 99bc 40f0 0bbc 3b85 2d3d 3954 d5bc
00000310: f671 44bc ae6e abbc 3d62 7c3c e4a0 5dbc
00000320: 1508 de3c 616e 863c 40a3 0a3c 586e 08bd
00000330: 4e93 a1bb 53e6 c1bc 31c0 edbb cd13 d4bc
00000340: a9be f9bc 121e f9ba 2398 edbc baa2 1a3d
00000350: 01ee 12bc 315c 10bd beb8 e1bc a4dc d1ba
00000360: e897 a33c 5735 2a3b 5b81 73bc 9b48 8cbd
00000370: dc74 783c 1776 913b b780 f33a d4f1 94bc
00000380: 0363 efbc 70a0 c5bc d29a 8f3c fd84 913a
00000390: 179c f5bc 7d95 73bb b23d 823c 6e53 db3a
000003a0: 3499 c6bb f260 60bb 6f8b cebb a688 8abc
000003b0: dc2f 05bb ac84 10bd 4851 0dbb 60a7 06bb
000003c0: bb78 063c c671 aebc 9fd5 92bc abf6 163c
000003d0: 929f 5a3b c74e 0fbc cf2b ca3b 952e 743c
000003e0: 7e51 81bc 26c2 933c d361 1cbd 333d 553c
000003f0: cc05 a6bc 04b3 a3bc 570c 06bc 6dca 253c

encoder.blocks.0.MHA.heads.0.query.bias f4 [12]
-0.00076993817 0.002260082 -0.005190498 0.0011426819 0.001258924 -0.0015381419 -0.0042684237 0.004961895
0.0040374855 -0.0046272962 -0.003777225 -0.0012755273
00000000: add5 49ba e21d 143b 0e15 aabb 0bc6 953a
00000010: 7b02 a53a 7a9b c9ba 22de 8bbb 6497 a23b
00000020: e24c 843b 93a0 97bb 528b 77bb 982f a7ba

encoder.blocks.0.MHA.heads.0.key.weight f4 [12, 64]
0.021821432 0.03706397 -0.013676125 0.016956309 -0.043497186 0.01709878 -0.018279703 -0.012351839
-0.00964283 0.019118628 0.01267868 0.0078305965 -0.021279115 -0.009676915 -0.041896462 0.024911568
0.020239985 -0.0117789 -0.007583288 -0.0068619996 -0.029721834 -0.028331544 -0.014600029 0.008160981
0.0072457325 -0.016223397 0.0022482371 -0.008070347 -0.001044853 0.008709659 0.02183585 0.019096425
-0.008747747 0.00923349 0.013194243 -0.010261863 0.0006869122 0.012228895 -0.0025930668 0.023675986
-0.021125853 0.0068815704 -0.020047704 0.016863393 4.6304143e-05 0.02872423 -0.010664376 -0.015832389
-0.0047662435 0.009091233 -0.020603629 0.008172301 0.007533157 -0.015607942 -0.012847031 -0.016580654
0.0066120834 -0.016049378 -0.02048903 0.004460068 -0.0052875476 0.017615985 -0.0007491831 0.008805768
0.014208682 0.005433847 -0.021169027 -0.007851143 0.010049972 -0.0005607428 0.017953828 0.0050156787
0.0025354195 0.01886794 -0.0056734486 0.018391052 0.023402857 0.014169084 -0.011737984 0.001647866
-0.00018944305 0.008367741 -0.0016887704 0.009253188 0.0009572981 -0.031891122 -0.004527341 -0.0027793075
-0.01703496 -0.0034792537 0.019383937 -0.0019630282 -0.01800105 -0.009297144 0.036840655 0.05125717
-0.011536747 0.0024332008 0.004643357 0.016580667 -0.0036471891 0.017312385 0.0041133077 0.004299805
0.0072828825 0.055567726 0.015199327 0.00989598 0.004741206 0.0100724185 -0.0013306712 0.016243195
-0.007540049 0.01021042 -0.016467815 -0.014502768 -0.033950675 0.005465821 0.014047092 -0.0058902293
-0.011328484 0.008891267 0.008985933 0.005163591 0.007326487 0.034873735 0.027582778 -0.007632714
0.014694367 0.04638149 -0.01019794 -0.0044601136 -0.049819596 0.0071881553 0.03492336 -0.015491992
-0.014685992 0.018742932 0.028897913 0.009729811 0.027618527 0.031212857 -0.01927139 -0.0044221655
-0.015194798 -0.010384255 0.041992273 0.015023611 -0.033631094 -0.011817892 0.0051470795 0.036363974
-0.014810761 -0.0049525197 -0.022622466 0.019523013 0.0513962 -0.017121928 -0.001987776 0.00923864
0.010225298 0.016708335 0.0037722168 -0.03524905 -0.0011741833 -0.005973011 -0.012231057 -0.017516872
-0.020576935 -0.009576642 -0.052259993 0.034275442 -0.0065701553 0.002797425 0.0018063401 -0.038407963
-0.0057845856 -0.02117663 0.033966627 -0.003149863 -0.021709211 -0.0020930062 0.016333982 0.029038675
0.02592746 0.028831266 0.025171759 0.023065062 0.010799664 0.0042794314 -0.0055763503 0.0020042332
6.496392e-05 -0.018933248 -0.007342697 -0.0049014995 0.0059343036 -0.007900914 0.020338014 -0.014915786
0.020471614 0.0388451 0.0051072976 -0.0072960234 0.0020006269 0.011571735 0.016821593 0.012746483
-0.038339812 0.07177048 -0.02243681 0.043017093 4.7020563e-05 0.0012972875 -0.017709872 0.033802498
-0.018558001 0.0070884298 -0.01825712 -0.012007216 0.004988592 -0.005296672 -0.017819345 -0.0017811724
-0.005555205 0.023370253 0.00019966744 0.003429826 0.037778024 0.026727648 0.0035918178 0.0046869367
0.017282574 -0.012479553 0.03890279 -0.008351581 -0.037709244 0.039103862 0.011655322 0.009622579
0.010643842 0.041402653 0.038296346 0.02976721 -0.027585305 -0.008924158 0.010552691 0.004410699
-0.032085165 0.03582867 0.009506467 0.013308768 -0.025438052 -0.005927196 -0.061088406 0.006315308
00000000: dcc2 b23c 64d0 173d d311 60bc f5e7 8a3c
00000010: 1b2a 32bd be12 8c3c 51bf 95bc 5e5f 4abc
00000020: f6fc 1dbc ab9e 9c3c 3dba 4f3c e74b 003c
00000030: 8a51 aebc ec8b 1ebc a09b 2bbd 5813 cc3c
00000040: 53ce a53c 4afc 40bc 3b7d f8bb a0da e0bb
00000050: 347b f3bc 8e17 e8bc f634 6fbc a3b5 053c
00000060: 9c6d ed3b eee6 84bc 2957 133b 7d39 04bc
00000070: 73f3 88ba f5b2 0e3c 19e1 b23c 1b70 9c3c
00000080: b652 0fbc 1048 173c ab2c 583c 5f21 28bc
00000090: e611 343a b45b 483c 71f0 29bb 24f4 c13c
000000a0: 2010 adbc cc7e e13b 153b a4bc 1925 8a3c
000000b0: b236 4238 144f eb3c a3b9 2ebc edb2 81bc
000000c0: 262e 9cbb 65f3 143c f1c8 a8bc 1de5 053c
000000d0: b3d8 f63b 74b8 7fbc 5a7c 52bc 27d4 87bc
000000e0: 2daa d83b fc79 83bc 9cd8 a7bc c325 923b
000000f0: 2a43 adbb 664f 903c d464 44ba 1146 103c
00000100: 88cb 683c 6a0e b23b ab6a adbc 15a2 00bc
00000110: a3a8 243c d0fe 12ba e813 933c 905a a43b
00000120: 4829 263b f090 9a3c 56e8 b9bb d5a8 963c
00000130: 59b7 bf3c 7225 683c ac50 40bc 35fd d73a
00000140: 3ba5 46b9 d918 093c bb59 ddba af9a 173c
00000150: 30f3 7a3a 44a0 02bd 175a 94bb 0b25 36bb
00000160: e78c 8bbc 3104 64bb 10cb 9e3c 26a6 00bb
00000170: f076 93bc 0c53 18bc 3ae6 163d 0af3 513d
00000180: a004 3dbc 5676 1f3b 4d27 983b 2ed4 873c
00000190: ae05 6fbb b4d2 8d3c edc8 863b 61e5 8c3b
000001a0: 3fa5 ee3b fc9a 633d 9906 793c c022 223c
000001b0: 1e5c 9b3b c906 253c eb69 aeba 7310 853c
000001c0: 8412 f7bb 9b49 273c 83e7 86bc 059d 6dbc
000001d0: dd0f 0bbd a11a b33b c625 663c d302 c1bb
000001e0: 1b9b 39bc adac 113c bc39 133c 5733 a93b
000001f0: 0713 f03b c3d7 0e3d 47f5 e13c d91b fabb
00000200: a4c0 703c 84fa 3d3d 4315 27bc 2526 92bb
00000210: a20f 4cbd 9e8a eb3b cc0b 0f3d 20d2 7dbc
00000220: 849d 70bc c78a 993c 51bb ec3c c969 1f3c
00000230: 4040 e23c 1bb2 ff3c 09df 9dbc d0e7 90bb
00000240: 9af3 78bc b922 2abc 1700 2c3d 9725 763c
00000250: c2c0 09bd d59f 41bc d5a8 a83b 64f2 143d
00000260: d6a8 72bc bf48 a2bb c052 b9bc baee 9f3c
00000270: d284 523d 4943 8cbc 5945 02bb aa5d 173c
00000280: 0288 273c ebdf 883c 4c37 773b 4f61 10bd
00000290: 0ee7 99ba 3fb9 c3bb c564 48bc 8b7f 8fbc
000002a0: f690 a8bc 59e7 1cbc 930e 56bd 6864 0c3d
000002b0: 754a d7bb 0155 373b b7c2 ec3a ab51 1dbd
000002c0: 9f8c bdbb 9d7a adbc 9720 0b3d ef6d 4ebb
000002d0: 84d7 b1bc d12a 09bb d8ce 853c 84e2 ed3c
000002e0: d365 d43c 8c2f ec3c 0135 ce3c f1f2 bc3c
000002f0: 13f1 303c 793a 8c3b d1b9 b6bb 7459 033b
00000300: 3d3d 8838 e619 9bbc 029b f0bb c29c a0bb
00000310: 8c74 c23b d672 01bc e89b a63c 5761 74bc
00000320: 16b4 a73c 0a1c 1f3d 1e5b a73b 7b13 efbb
00000330: f31c 033b 6097 3d3c 70cd 893c a0d6 503c
00000340: 350a 1dbd 67fc 923d 67cd b7bc b132 303d
00000350: f237 4538 bf09 aa3a 4b14 91bc 7d74 0a3d
00000360: f306 98bc 0f46 e83b f58f 95bc eab9 44bc
00000370: 5877 a33b b58f adbb e0f9 91bc 3a76 e9ba
00000380: 7008 b6bb f972 bf3c d25d 5139 efc6 603b
00000390: 21bd 1a3d f1f3 da3c b464 6b3b e094 993b
000003a0: 2f94 8d3c 0a77 4cbc 8858 1f3d 12d5 08bc
000003b0: 0275 1abd 5f2b 203d f7f5 3e3c 06a8 1d3c
000003c0: 8263 2e3c d495 293d a1dc 1c3d 5dda f33c
000003d0: 94fa e1bc a236 12bc 32e5 2c3c a087 903b
000003e0: bc6b 03bd 15c1 123d 03c1 1b3c 050d 5a3c
000003f0: 7663 d0bc ec38 c2bb d637 7abd a5f0 ce3b

encoder.blocks.0.MHA.heads.0.key.bias f4 [12]
-2.946016e-08 -7.38324e-08 -5.080897e-08 -4.374736e-09 -2.583197e-08 7.154402e-08 -1.7286613e-08 -2.92107e-08
7.949956e-08 -1.0143487e-08 1.8333175e-08 2.3708562e-08
00000000: 940f fdb2 cb8d 9eb3 0e39 5ab3 9650 96b1
00000010: 1ae5 ddb2 bea3 9933 aa7d 94b2 02eb fab2
00000020: 58b9 aa33 8743 2eb2 147b 9d32 aea7 cb32

encoder.blocks.0.MHA.heads.0.value.weight f4 [12, 64]
-0.01862336 -0.00088698475 0.02699978 -0.011539406 0.01663878 0.0133642 -0.013983132 -0.030572632
0.021089645 0.011880985 -0.015200756 0.028348893 -0.00022082051 -0.036332272 -0.059967805 0.011757545
-0.006809799 0.023136185 0.0031238475 0.024058618 -0.016763985 0.014211038 0.017206954 -0.015472029
-0.023656745 0.028261052 0.008971617 -0.02612216 -0.0037860642 -0.011427695 0.027231082 -0.021998875
-0.014464022 -0.013939235 0.008540702 0.027705101 -0.028328018 0.020709742 0.0151197165 0.003190521
-0.006718313 0.002988285 -0.010459591 0.0010227773 -0.007651931 0.004403946 -0.015212061 -0.04087597
-0.0200272 -0.008710873 0.006390423 -0.015177267 -0.0015858427 0.0019610897 -0.0040960032 0.036751032
0.00812923 -0.010270831 -0.0031325591 -0.011811828 0.0137869185 -0.013669628 0.0036985166 0.0068340707
-0.038792454 -0.0013990263 0.006502771 -0.0078101484 0.008926388 0.014954778 0.038266394 0.017865837
0.00950725 -0.008455689 0.018782703 0.01202736 0.013960078 0.028774789 0.0024074758 0.0019028771
-0.010225435 -0.0002056083 0.030841924 0.027055513 0.017582828 0.008425015 -0.014696469 0.0040149526
-0.020062407 -0.029608376 -0.012872156 -0.02225779 0.021629982 0.01227641 -0.012559373 0.0045847343
-0.012993135 -0.008975359 -0.046060394 0.045635648 0.0023632888 0.03130543 0.018325312 0.0022474308
0.011452387 0.018075446 -0.0021667841 -0.005921128 0.004574721 -0.0007206763 -0.042768087 0.00071670575
-0.012502763 -0.0022348983 0.014854632 -0.0075856866 -0.037681557 0.012713467 0.031682257 -0.034800086
-0.02822969 -0.0118853925 -0.027852505 0.0232168 -0.016498737 -0.026415028 -0.009863171 0.010521386
0.026085133 0.01728837 -0.0130902855 0.010062535 -0.013403934 -0.041984327 0.00097444776 -0.030711439
-0.0069471654 -0.026659776 -0.00088709086 0.016085505 0.007721504 -0.030369006 0.014161289 0.032243837
0.016188215 0.012414914 -0.004859864 0.0050908593 -0.033464096 0.038278192 -0.010443212 -0.009410986
0.0057042465 0.037937615 0.009180682 0.012592932 -0.0022883161 -0.04118891 -0.012420365 -0.0012083906
-0.008738718 0.0023839623 -0.008960068 0.022919348 9.591129e-05 -0.034800448 -0.0022568041 0.0024618797
-0.00089240324 -0.010612238 0.011934527 -0.008204561 0.012993847 0.017914206 0.010278926 -0.027099952
-0.026439393 -0.015710035 0.02201271 -0.018316919 -0.0059311483 -0.008453175 -0.021606844 0.01786525
0.040691257 -0.03305076 0.013222977 0.025651027 0.0071390183 -0.004406389 0.0056700055 -0.010134949
0.015366133 -0.04116129 0.026159655 0.0029758045 -0.010384342 -0.008555488 0.011975066 -0.0005210042
0.007801396 -0.0035708116 -0.019412324 -0.027665738 0.015578846 -0.017492946 -0.0022863033 -0.019741016
0.018312732 -0.002533859 0.007722045 -0.011033761 0.01217506 -0.0152596645 -0.030120147 -0.011326455
0.034088276 -0.01720937 -0.01255071 0.018494604 0.06072649 -0.033852037 0.011934669 0.017775735
0.02074634 -0.011797239 0.034179162 -0.010027846 -0.018699484 0.02846474 0.005272563 0.012253456
-0.010662467 2.7012185e-05 0.0023720104 -0.032568146 0.0124216825 -0.006819021 -0.03048287 0.01851139
0.021700518 0.009485022 -0.021421902 -0.028050425 0.012759469 -0.007091246 -0.0055653993 0.011700702
0.05103999 0.017018907 0.005727389 0.0017284065 -0.008875481 0.0493493 0.018773144 0.022654599
00000000: 0490 98bc 8a84 68ba a52e dd3c c70f 3dbc
00000010: 0d4e 883c 84f5 5a3c 8219 65bc 7573 fabc
00000020: 31c4 ac3c 77a8 423c 970c 79bc f03b e83c
00000030: 0e8c 67b9 26d1 14bd cda0 75bd b8a2 403c
00000040: bc24 dfbb 1988 bd3c 77b9 4c3b 9416 c53c
00000050: a054 89bc 6ad5 683c 99f5 8c3c 657e 7dbc
00000060: cacb c1bc b983 e73c b0fd 123c 24fe d5bc
00000070: 9e1f 78bb 3a3b 3bbc b813 df3c fc36 b4bc
00000080: 81fa 6cbc 6461 64bc 4dee 0b3c cff5 e23c
00000090: 2910 e8bc 7aa7 a93c b0b8 773c 0f18 513b
000000a0: 4b25 dcbb 1ad7 433b b45e 2bbc b60e 863a
000000b0: 0dbd fabb fa4e 903b 023c 79bc 906d 27bd
000000c0: 1510 a4bc 0db8 0ebc c166 d13b 12aa 78bc
000000d0: 0ddc cfba a085 003b c437 86bb 4088 163d
000000e0: 7630 053c fd46 28bc 9f4b 4dbb 6686 41bc
000000f0: 87e2 613c 93f6 5fbc d062 723b 57f0 df3b
00000100: d6e4 1ebd 885f b7ba 3215 d53b 46ec ffbb
00000110: fc3f 123c e304 753c 39bd 1c3d 605b 923c
00000120: 4cc4 1b3c bb89 0abc 2fde 993c 670e 453c
00000130: d0b8 643c 1bb9 eb3c bec6 1d3b f669 f93a
00000140: 9588 27bc 8f98 57b9 34a8 fc3c 86a3 dd3c
00000150: dd09 903c 1309 0a3c 75c9 70bc dd8f 833b
00000160: eb59 a4bc 448d f2bc bce5 52bc f855 b6bc
00000170: 5c31 b13c ff22 493c d4c5 4dbc 8a3b 963b
00000180: 28e1 54bc 620d 13bc d3a9 3cbd 72ec 3a3d
00000190: 68e1 1a3b 1f3a 003d f71e 963c a249 133b
000001a0: cba2 3b3c f512 943c 9b00 0ebb 0606 c2bb
000001b0: 8be7 953b c5eb 3cba 972d 2fbd 4fe1 3b3a
000001c0: 64d8 4cbc 5f77 12bb d860 733c 5a91 f8bb
000001d0: fa57 1abd 254c 503c 41c5 013d 898a 0ebd
000001e0: f341 e7bc f3ba 42bc f02a e4bc 2931 be3c
000001f0: 5c28 87bc 5464 d8bc 2399 21bc e461 2c3c
00000200: 7db0 d53c 57a0 8d3c a378 56bc 55dd 243c
00000210: 2d9c 5bbc c2f7 2bbd 1572 7f3a 8e96 fbbc
00000220: 0ca5 e3bb 9a65 dabc a98b 68ba c0c5 833c
00000230: ac04 fd3b 6cc8 f8bc c004 683c 1d12 043d
00000240: 269d 843c ec67 4b3c 7e3f 9fbb 39d1 a63b
00000250: a611 09bd 98c9 1c3d 021a 2bbc 8930 1abc
00000260: b0ea ba3b 7964 1b3d 926a 163c 9652 4e3c
00000270: 93f7 15bb b4b5 28bd c97e 4bbc dc62 9eba
00000280: d72c 0fbc 403c 1c3b 40cd 12bc 5bc1 bb3c
00000290: fb23 c938 ea8a 0ebd e4e6 13bb 7d57 213b
000002a0: 2bf0 69ba f4de 2dbc 0989 433c 6c6c 06bc
000002b0: 25e4 543c d0c0 923c f168 283c b800 debc
000002c0: 6d97 d8bc 55b2 80bc 0054 b43c 5d0d 96bc
000002d0: 145a c2bb 307f 0abc d600 b1bc 255a 923c
000002e0: e0ab 263d 3c60 07bd 2fa5 583c 1a22 d23c
000002f0: 6dee e93b 7863 90bb 74cb b93b 0f0d 26bc
00000300: 3cc2 7b3c be98 28bd c64c d63c b705 433b
00000310: 1623 2abc 512c 0cbc 1133 443c 0094 08ba
00000320: daa2 ff3b 4704 6abb 9806 9fbc 42a3 e2bc
00000330: 6b3e 7f3c 5e4d 8fbc ced5 15bb e9b7 a1bc
00000340: 9504 963c 1a0f 26bb 3509 fd3b f3c6 34bc
00000350: e779 473c ac03 7abc 87be f6bc 9892 39bc
00000360: 26a0 0b3d aafa 8cbc 7ea1 4dbc ff81 973c
00000370: 57bc 783d 6fa8 0abd a189 433c 6b9e 913c
00000380: 3af4 a93c 3549 41bc 73ff 0b3d d64b 24bc
00000390: a92f 99bc e32e e93c 77c5 ac3b b8c2 483c
000003a0: a1b1 2ebc 3a98 e237 bb73 1b3b 2d66 05bd
000003b0: 5084 4b3c 1872 dfbb 36b7 f9bc 33a5 973c
000003c0: 49c5 b13c 1167 1b3c fc7c afbc 01ca e5bc
000003d0: 180d 513c af5d e8bb f45d b6bb 4db4 3f3c
000003e0: 4f0f 513d 3c6b 8b3c d2ac bb3b b38b e23a
000003f0: 776a 11bc 7e22 4a3d 23ca 993c 2396 b93c

encoder.blocks.0.MHA.heads.0.value.bias f4 [12]
-0.0043427767 0.004474073 -0.0048923697 0.0026795792 -0.0014617939 0.0038897109 0.0009368069 0.0001653044
0.00022588944 0.0048236493 -0.004167671 0.004109721
00000000: da4d 8ebb 3f9b 923b 2c50 a0bb e19b 2f3b
00000010: aa99 bfba 85ea 7e3b 0c94 753a 9055 2d39
00000020: bcdc 6c39 b40f 9e3b f590 88bb d7aa 863b

encoder.blocks.0.MHA.heads.1.query.weight f4 [12, 64]
-0.023700504 0.017477455 -0.023093149 0.013314611 -0.010789107 -0.042781062 0.0037005541 0.014683346
-0.008065618 0.023364743 -0.04915653 -0.017655011 -0.003848023 0.0189259 0.024029149 0.02710975
0.04689156 0.0020223153 0.032166358 0.033994474 -0.0030659128 0.004691126 0.0076839617 0.011088274
0.016957134 0.004630277 -0.00085703155 0.00822149 -0.030979043 -0.030046728 0.029648742 -0.015536196
0.009113392 -0.02062948 0.00078743754 0.055940107 -0.031206803 -0.01744767 0.029393792 0.023174902
-0.0063351104 0.010222555 -0.022967862 -0.014681506 0.038044233 -0.029865704 -0.026459262 0.0040679043
-0.001994202 0.0033110513 0.022195978 -0.0055325045 -0.03868086 -0.02199456 -0.012018544 -0.008827153
0.01756006 -0.019560631 -0.016284183 -0.0064041694 -0.025535554 0.016276771 0.0023217066 -0.015747009
-0.0034484325 -0.009876464 0.044140678 0.02057898 -0.029896494 -0.009989895 -0.055816766 -0.020549262
0.040532097 0.014278041 0.016799755 -0.0126677295 0.020362703 0.020367393 -0.046425562 -0.008640703
0.0121132145 0.00046201202 0.009295763 0.017099654 -0.0062335324 0.031356134 -0.0023504565 0.017220935
-0.018315824 0.022546774 -0.023948526 -0.017755974 0.00023460138 -0.03248601 0.028778918 0.007956394
-0.0045327037 0.033364408 0.012679007 -0.01678549 0.008381032 -0.0034342723 -0.00018782797 0.007780508
-0.012982166 0.012967609 0.0057298965 0.00013184056 -0.018080952 0.03803417 -0.039315246 -0.014716031
0.015283743 -0.0010238414 0.017145442 -0.027358333 -0.019141195 0.005472444 -0.033382144 -0.015525256
-0.036582097 0.012824013 0.020289311 -0.02459551 -0.020786086 0.024931282 0.006678424 0.013174753
0.020409962 0.010337197 -0.01749919 0.032940887 -0.034434013 -0.0027519593 -0.007143377 0.03604739
-0.014567358 -0.047744684 -0.0018920962 0.030283764 -0.0014937557 0.00039052923 0.008231969 -0.00851007
0.003342868 0.001409795 0.02961508 0.00012443989 -0.0011043781 0.032054592 0.010389777 -0.04754861
0.007372368 -0.031835996 -0.036284506 -0.0106131695 -0.0165412 0.018022647 -0.016616257 0.022328632
-0.009311652 -0.016989442 0.0030678594 0.007773459 -0.023094445 -0.00011731226 0.013378344 -0.015335691
-0.013556325 -0.0030344343 -0.04094038 0.026497278 0.004296054 0.0018580212 0.018177329 -0.023825046
-0.032040957 0.020641064 0.014427531 -0.018780503 0.015153033 0.006931352 -0.011344002 0.025733152
-0.012180282 -0.004802131 -0.011278638 -0.018066175 0.0369576 0.0037566342 0.015894232 0.0136591075
0.0008954077 0.0071301996 0.0022527364 -0.020528762 -0.032134388 0.014844745 0.004494115 -0.0029806062
-0.0024113774 0.007193046 0.010759488 -0.008161578 0.013317766 -0.024160996 0.002847928 -0.017618278
-0.00019516905 0.0020402984 -0.04217227 -0.026053518 -0.0068902043 0.0020607326 -0.010809423 -0.0074292263
0.021764299 -0.0072245537 -0.0025293308 0.0011238272 -0.012941902 -0.0038836326 -0.0090261055 -0.024843473
-0.020659842 0.01870444 -0.007836942 0.00019593272 0.0019932492 -0.008179255 -0.01925495 0.01113049
0.006435226 0.00580628 0.030795906 0.005217041 0.02448791 0.00038367842 0.0044134515 0.029819405
0.023699047 -0.041411906 -0.032127682 0.033413477 -0.014443337 0.0045886072 0.023175035 0.023554994
0.008704284 -0.010867849 0.051755354 0.027052902 0.009700512 -0.0055432627 -0.02502552 -0.0036643771
00000000: 8f27 c2bc e12c 8f3c d82d bdbc 8725 5a3c
00000010: cbc4 30bc 323b 2fbd ff84 723b 6b92 703c
00000020: a725 04bc 6b67 bf3c 5c58 49bd 3ea1 90bc
00000030: 1d2f 7cbb 7d0a 9b3c c7d8 c43c 4415 de3c
00000040: 5d11 403d d288 043b dfc0 033d ca3d 0b3d
00000050: 7bed 48bb 04b8 993b bec9 fb3b 98ab 353c
00000060: b0e9 8a3c 94b9 973b 6aaa 60ba 6eb3 063c
00000070: c3c7 fdbc 8e24 f6bc ebe1 f23c 878b 7ebc
00000080: 5650 153c 28ff a8bc 0a6c 4e3a 7421 653d
00000090: 69a5 ffbc 6bee 8ebc 40cb f03c 4bd9 bd3c
000000a0: c296 cfbb 817c 273c 1927 bcbc b38a 70bc
000000b0: 45d4 1b3d eca8 f4bc 18c1 d8bc 0e4c 853b
000000c0: 28b1 02bb 39fe 583b 57d4 b53c 034a b5bb
000000d0: d26f 1ebd ef2d b4bc 6de9 44bc c39f 10bc
000000e0: 1dda 8f3c 9e3d a0bc 6866 85bc 11da d1bb
000000f0: f02f d1bc dd56 853c c627 183b dfff 80bc
00000100: 19ff 61bb e4d0 21bc dbcc 343d 4095 a83c
00000110: 7ee9 f4bc a8ac 23bc 1fa0 64bd ed56 a8bc
00000120: fc04 263d 72ee 693c a49f 893c 4f8c 4fbc
00000130: afcf a63c 85d9 a63c bb28 3ebd bc91 0dbc
00000140: 8176 463c 343a f239 424d 183c 9314 8c3c
00000150: a942 ccbb 4a6f 003d 1e0a 1abb eb12 8d3c
00000160: 110b 96bc 03b4 b83c b32f c4bc fa74 91bc
00000170: 54ff 7539 0d10 05bd c4c1 eb3c 895b 023c
00000180: 1387 94bb 1ea9 083d 9cbb 4f3c b981 89bc
00000190: 9950 093c 8711 61bb b0f3 44b9 a2f3 fe3b
000001a0: 27b3 54bc 1876 543c dbc1 bb3b ae3e 0a39
000001b0: 811e 94bc b8c9 1b3d 0609 21bd 821b 71bc
000001c0: aa68 7a3c 6b32 86ba 9974 8c3c 951e e0bc
000001d0: ffcd 9cbc 3052 b33b b7bb 08bd a55d 7ebc
000001e0: 1cd7 15bd cf1b 523c c535 a63c 867c c9bc
000001f0: 9547 aabc b03c cc3c aed6 da3b ebda 573c
00000200: cb32 a73c 595d 293c 765a 8fbc 06ed 063d
00000210: ae0a 0dbd 375a 34bb fd12 eabb 6ea6 133d
00000220: eeab 6ebc ee8f 43bd 3700 f8ba a815 f83c
00000230: 20ca c3ba f2bf cc39 61df 063c d26d 0bbc
00000240: 0514 5b3b dfc8 b83a 539b f23c 147c 0239
00000250: c8c0 90ba ad4b 033d e239 2a3c 55c2 42bd
00000260: e893 f13b 7666 02bd 109f 14bd dce2 2dbc
00000270: 6981 87bc 3ba4 933c d11e 88bc 89ea b63c
00000280: e68f 18bc 712d 8bbc 240e 493b 80b8 fe3b
00000290: 9030 bdbc 8a05 f6b8 d730 5b3c 8d42 7bbc
000002a0: 591b 5ebc 5cdd 46bb 1ab1 27bd d210 d93c
000002b0: eac5 8c3b d988 f33a 9fe8 943c be2c c3bc
000002c0: 613d 03bd 7317 a93c 7361 6c3c 92d9 99bc
000002d0: 6d44 783c 6520 e33b 31dc 39bc 55ce d23c
000002e0: ce8f 47bc 325b 9dbb 09ca 38bc 84ff 93bc
000002f0: da60 173d dd31 763b 9f34 823c 73ca 5f3c
00000300: cbb9 6a3a 73a4 e93b a5a2 133b ef2b a8bc
00000310: 599f 03bd 6037 733c 5e43 933b 4656 43bb
00000320: 3308 1ebb a5b3 eb3b 9048 303c 24b8 05bc
00000330: c232 5a3c 48ed c5bc 4ea4 3a3b 3554 90bc
00000340: 4ba6 4cb9 87b6 053b d5bc 2cbd 306e d5bc
00000350: 39c7 e1bb 5b0d 073b 021a 31bc de70 f3bb
00000360: 0b4b b23c f3bb ecbb 21c3 25bb 624d 933a
00000370: 450a 54bc 8b84 7ebb 3be2 13bc 8a84 cbbc
00000380: d43e a9bc 0e3a 993c 8466 00bc 4a73 4d39
00000390: 2ca1 023b 4802 06bc 8fbc 9dbc a95c 363c
000003a0: 97de d23b 9b42 be3b b247 fc3c b6f3 aa3b
000003b0: df9a c83c 7228 c939 b79e 903b d347 f43c
000003c0: 8124 c23c 889f 29bd 5198 03bd 92dc 083d
000003d0: bfa3 6cbc 075c 963b 92d9 bd3c 67f6 c03c
000003e0: 6a9c 0e3c 100f 32bc 6cfd 533d 0c9e dd3c
000003f0: e5ee 1e3c 42a4 b5bb 5202 cdbc 0c26 70bb

encoder.blocks.0.MHA.heads.1.query.bias f4 [12]
0.0019146974 -0.002986674 -0.001897417 0.004960548 -0.0049577286 0.0005182233 0.0036581394 0.003507301
0.004916899 0.003340779 -0.0032140154 0.0052044024
00000000: 95f6 fa3a 13bc 43bb c0b2 f8ba 188c a23b
00000010: 7174 a2bb 61d9 073a 65bd 6f3b bfda 653b
00000020: f01d a13b f9f0 5a3b 3ba2 52bb b189 aa3b
